ei-multi-object-detection-for-quality-assurance-and-product-maintenance-object-detection-tensorflow-lite-int8-quantized-model.3.lite (tflite, 56328 bytes, 21 tensors)

model_1/logits/Conv2D i1 [3, 1, 1, 32]
00000000: 534d 709f bb0c e122 f42d 31d5 d19c 621d
00000010: ba5c 4f78 e5f0 3291 8176 bc03 4aff e8ea
00000020: 3fde bf18 f97f eafb 79d5 00b9 c26b 26d0
00000030: 5cd5 f7a5 9319 734a 1a17 03f5 c0cf fee8
00000040: e850 b452 56d8 e274 5e2a 7f00 9fae 5b77
00000050: b0c6 0c8f 4972 d2a7 5cce ee83 11b6 56ed
83 77 112 -97 -69 12 -31 34
-12 45 49 -43 -47 -100 98 29
-70 92 79 120 -27 -16 50 -111
-127 118 -68 3 74 -1 -24 -22
63 -34 -65 24 -7 127 -22 -5
121 -43 0 -71 -62 107 38 -48
92 -43 -9 -91 -109 25 115 74
26 23 3 -11 -64 -49 -2 -24
-24 80 -76 82 86 -40 -30 116
94 42 127 0 -97 -82 91 119
-80 -58 12 -113 73 114 -46 -89
92 -50 -18 -125 17 -74 86 -19

model_1/head/Conv2D i1 [32, 1, 1, 96]
00000000: e5d2 7011 58f1 a0a4 46a8 9e08 4012 e33d
00000010: cadf c7bf c4a2 0c6b 9412 52d1 74f8 efb0
00000020: 5ccb ad48 8ab9 ad13 4fa4 a75c 2b9d 74f5
00000030: 0ad0 d758 b3d3 9c72 233c 7f9d ac4a d228
00000040: fa13 4266 3b60 5e86 6da3 324c 9803 cc28
00000050: 3c1b 64f5 cedf b45c 2576 ff92 164c 171b
00000060: bc29 b304 e058 2e0f 4790 9a6f 47db 1f49
00000070: 75de 1b7f d4f1 2923 1d07 dc73 100c 68c5
00000080: 446f fb1d 3c36 f4c6 c70e e5a6 e41b d7c1
00000090: f09f 7a41 115c b7c7 126b 3559 cd7c c2b6
000000a0: cb29 5531 7023 0711 8f56 d538 5bda dc42
000000b0: b64e c191 1375 b0c5 4554 5520 5953 23f4
000000c0: 251e ba55 e2bc 5156 934d d36a 52e7 4a87
000000d0: bddd 1b2e 95e7 670c e147 6001 b148 4957
000000e0: b1e3 998b a057 63dc 81ac 06f2 a36d dcaa
000000f0: 5d1c 53a0 c937 1008 b257 b7fc e633 d33f
-27 -46 112 17 88 -15 -96 -92
70 -88 -98 8 64 18 -29 61
-54 -33 -57 -65 -60 -94 12 107
-108 18 82 -47 116 -8 -17 -80
92 -53 -83 72 -118 -71 -83 19
79 -92 -89 92 43 -99 116 -11
10 -48 -41 88 -77 -45 -100 114
35 60 127 -99 -84 74 -46 40
-6 19 66 102 59 96 94 -122
109 -93 50 76 -104 3 -52 40
60 27 100 -11 -50 -33 -76 92
37 118 -1 -110 22 76 23 27
-68 41 -77 4 -32 88 46 15
71 -112 -102 111 71 -37 31 73
117 -34 27 127 -44 -15 41 35
29 7 -36 115 16 12 104 -59
68 111 -5 29 60 54 -12 -58
-57 14 -27 -90 -28 27 -41 -63
-16 -97 122 65 17 92 -73 -57
18 107 53 89 -51 124 -62 -74
-53 41 85 49 112 35 7 17
-113 86 -43 56 91 -38 -36 66
-74 78 -63 -111 19 117 -80 -59
69 84 85 32 89 83 35 -12
37 30 -70 85 -30 -68 81 86
-109 77 -45 106 82 -25 74 -121
-67 -35 27 46 -107 -25 103 12
-31 71 96 1 -79 72 73 87
-79 -29 -103 -117 -96 87 99 -36
-127 -84 6 -14 -93 109 -36 -86
93 28 83 -96 -55 55 16 8
-78 87 -73 -4 -26 51 -45 63

model_1/block_6_expand/Conv2D i1 [96, 1, 1, 16]
00000000: f65f a82a 37e5 6944 c800 1d9d 507f bb1a
00000010: e9fd c6e4 f227 1381 1acf eed0 f3d3 d008
00000020: ebe7 1f4f 1b2f 987f e805 4bc2 efc2 d045
00000030: 5ea8 50fb f8dc db7f e73d 4135 f736 1105
00000040: dcf0 f039 a816 df81 fbfb 1ee9 2c3d 7a78
00000050: 7f16 e4e3 a713 2047 0bf0 4665 7c19 a408
00000060: 0dd7 bfc3 b107 03ca cbc4 e722 5532 7ffc
00000070: cb22 e5b8 06c8 b212 a338 b7bd 81dc 1255
00000080: 3329 4706 361b 4c07 41e2 2c06 81e8 ad0f
00000090: d83e 20cf e0ef 1bf1 dd30 d911 2e7f 1c1a
000000a0: 4a32 cb38 e7f4 3cc9 acdc c991 81b8 056a
000000b0: 2f04 3d07 f2e0 0c69 a416 e405 effb 437f
000000c0: d1ea 0200 1602 7f27 c814 06f2 f54f d16c
000000d0: 2034 243b 7f2a 6e7b d279 a6be 1e66 89d8
000000e0: 857f 09f3 fc01 3a07 db25 72f9 9d15 d92a
000000f0: f1ec 81d1 4bd2 acda e7ea f2c2 fbac c832
-10 95 -88 42 55 -27 105 68
-56 0 29 -99 80 127 -69 26
-23 -3 -58 -28 -14 39 19 -127
26 -49 -18 -48 -13 -45 -48 8
-21 -25 31 79 27 47 -104 127
-24 5 75 -62 -17 -62 -48 69
94 -88 80 -5 -8 -36 -37 127
-25 61 65 53 -9 54 17 5
-36 -16 -16 57 -88 22 -33 -127
-5 -5 30 -23 44 61 122 120
127 22 -28 -29 -89 19 32 71
11 -16 70 101 124 25 -92 8
13 -41 -65 -61 -79 7 3 -54
-53 -60 -25 34 85 50 127 -4
-53 34 -27 -72 6 -56 -78 18
-93 56 -73 -67 -127 -36 18 85
51 41 71 6 54 27 76 7
65 -30 44 6 -127 -24 -83 15
-40 62 32 -49 -32 -17 27 -15
-35 48 -39 17 46 127 28 26
74 50 -53 56 -25 -12 60 -55
-84 -36 -55 -111 -127 -72 5 106
47 4 61 7 -14 -32 12 105
-92 22 -28 5 -17 -5 67 127
-47 -22 2 0 22 2 127 39
-56 20 6 -14 -11 79 -47 108
32 52 36 59 127 42 110 123
-46 121 -90 -66 30 102 -119 -40
-123 127 9 -13 -4 1 58 7
-37 37 114 -7 -99 21 -39 42
-15 -20 -127 -47 75 -46 -84 -38
-25 -22 -14 -62 -5 -84 -56 50

model_1/block_5_project/Conv2D i1 [16, 1, 1, 96]
00000000: 8f2a 3de2 b2f9 bdff c809 f6df 282d 26d9
00000010: 13fc 5d0d 07c8 7f46 3419 071c bd89 9c07
00000020: d4cc 1910 0514 ff23 f3fb a709 bde8 fd59
00000030: ef0c cdeb fbff 18c4 9707 f151 3b1d 0002
00000040: e3ca ce16 c2bb 07ef 0500 b6d2 cd08 da08
00000050: c545 55b1 0838 0c30 1cf0 fdea d9db c00c
00000060: 1e13 15d4 c1ec f80e f015 35ce 06fb c2da
00000070: fc04 bd1a f5b0 0c2b f9c2 fcd4 4198 6ab5
00000080: 3212 eb32 1e41 f1db 1913 faf0 0b39 81d5
00000090: cfd0 ede4 23cd de31 0dfa df0c 152f f99b
000000a0: f5f4 c3f7 03f4 b0f6 d4ed 12bc 0912 1bbf
000000b0: ece9 aede 20d9 e510 b2f9 cf2d 143a c92f
000000c0: 58df 191a 16b1 3e04 f5f1 f1f4 b3df 0ce3
000000d0: 9fd0 de31 0acf d022 fdb8 06e9 e332 cb7d
000000e0: c87f e714 f9f3 ecf2 a04f 4d16 bd03 f0f7
000000f0: 2101 e4d0 34f1 ec41 2404 32fe 0630 dd0e
-113 42 61 -30 -78 -7 -67 -1
-56 9 -10 -33 40 45 38 -39
19 -4 93 13 7 -56 127 70
52 25 7 28 -67 -119 -100 7
-44 -52 25 16 5 20 -1 35
-13 -5 -89 9 -67 -24 -3 89
-17 12 -51 -21 -5 -1 24 -60
-105 7 -15 81 59 29 0 2
-29 -54 -50 22 -62 -69 7 -17
5 0 -74 -46 -51 8 -38 8
-59 69 85 -79 8 56 12 48
28 -16 -3 -22 -39 -37 -64 12
30 19 21 -44 -63 -20 -8 14
-16 21 53 -50 6 -5 -62 -38
-4 4 -67 26 -11 -80 12 43
-7 -62 -4 -44 65 -104 106 -75
50 18 -21 50 30 65 -15 -37
25 19 -6 -16 11 57 -127 -43
-49 -48 -19 -28 35 -51 -34 49
13 -6 -33 12 21 47 -7 -101
-11 -12 -61 -9 3 -12 -80 -10
-44 -19 18 -68 9 18 27 -65
-20 -23 -82 -34 32 -39 -27 16
-78 -7 -49 45 20 58 -55 47
88 -33 25 26 22 -79 62 4
-11 -15 -15 -12 -77 -33 12 -29
-97 -48 -34 49 10 -49 -48 34
-3 -72 6 -23 -29 50 -53 125
-56 127 -25 20 -7 -13 -20 -14
-96 79 77 22 -67 3 -16 -9
33 1 -28 -48 52 -15 -20 65
36 4 50 -2 6 48 -35 14

model_1/block_5_depthwise_BN/FusedBatchNormV3;model_1/block_5_depthwise/depthwise;model_1/block_6_expand/Conv2D i1 [1, 3, 3, 96]
00000000: 1470 0109 df09 2426 33ae b31b f0f3 2ad6
00000010: b412 1711 2b40 3e61 10f6 d001 ef09 0df1
00000020: ca05 e364 0424 00f7 1bde fc20 9dc8 08e6
00000030: e5af e9f9 0c33 eef9 b3c2 cc81 81fa adfc
00000040: e32e 1cf1 ec2b 24fb e109 28f7 04d6 b318
00000050: 04af 30e7 a6d6 f907 a209 b326 43f6 4003
00000060: d3d6 fe4f f365 eaf8 3712 813a e6bd 987f
00000070: 9949 3753 7f0b 5b7f 1e0f 0c2a fe7f f081
00000080: 3b55 0625 5661 e481 7ff9 627f c6b0 7fb5
00000090: f199 9fe3 0d7f e281 0719 81b5 c881 da66
000000a0: db56 6be6 097f 7fff a217 df9a 1fc3 f37f
000000b0: fcc8 7fba 81db 5e2f 645c a804 7fe1 7f1f
000000c0: 1293 06ff eef3 ee29 153c c20e f128 11b7
000000d0: eb0a 0d0b 272e 2d57 12e1 1c27 ff0d f1cc
000000e0: d1b1 e247 05f5 0c0d f424 ea2f e4e1 fd07
000000f0: 14c7 1705 fffa 10f9 2bb7 f3bc af11 c0f1
20 112 1 9 -33 9 36 38
51 -82 -77 27 -16 -13 42 -42
-76 18 23 17 43 64 62 97
16 -10 -48 1 -17 9 13 -15
-54 5 -29 100 4 36 0 -9
27 -34 -4 32 -99 -56 8 -26
-27 -81 -23 -7 12 51 -18 -7
-77 -62 -52 -127 -127 -6 -83 -4
-29 46 28 -15 -20 43 36 -5
-31 9 40 -9 4 -42 -77 24
4 -81 48 -25 -90 -42 -7 7
-94 9 -77 38 67 -10 64 3
-45 -42 -2 79 -13 101 -22 -8
55 18 -127 58 -26 -67 -104 127
-103 73 55 83 127 11 91 127
30 15 12 42 -2 127 -16 -127
59 85 6 37 86 97 -28 -127
127 -7 98 127 -58 -80 127 -75
-15 -103 -97 -29 13 127 -30 -127
7 25 -127 -75 -56 -127 -38 102
-37 86 107 -26 9 127 127 -1
-94 23 -33 -102 31 -61 -13 127
-4 -56 127 -70 -127 -37 94 47
100 92 -88 4 127 -31 127 31
18 -109 6 -1 -18 -13 -18 41
21 60 -62 14 -15 40 17 -73
-21 10 13 11 39 46 45 87
18 -31 28 39 -1 13 -15 -52
-47 -79 -30 71 5 -11 12 13
-12 36 -22 47 -28 -31 -3 7
20 -57 23 5 -1 -6 16 -7
43 -73 -13 -68 -81 17 -64 -15

model_1/block_5_expand/Conv2D i1 [96, 1, 1, 16]
00000000: ca32 fbeb eabf bce3 43d4 21c4 4d94 1181
00000010: 963f 9b92 ab15 ec3d d101 5bcb 2c7f 1c2d
00000020: cdf5 ab03 f0d1 1cd5 9e7f 530e 363c ce75
00000030: c8b4 04d2 a60e cc81 f70c 2eb9 bedc 87d5
00000040: 4903 f02c befc 812b 1040 102f 0703 d1b0
00000050: 9f42 aee7 41c2 e6b4 66ea 0bd0 0d89 8193
00000060: f6d6 e21c aa46 21da eac8 7fe3 fbfa 8608
00000070: df6d 7fad 3b49 f8cc 2143 b1f1 3106 1e42
00000080: d100 29fc 3f04 5e7f b5ec b6a7 2c57 babf
00000090: 252c 5e15 8cce a391 420f 7f1e d9a3 3deb
000000a0: f191 03b8 814d 2221 dccc 022a f23e 891d
000000b0: 7bca f964 90d8 3cf3 7f71 c928 16a9 eb6e
000000c0: c4c4 7ff8 30ee 103b 3fea 5940 de0c a718
000000d0: ffdd 101a 0a0d 7f25 9107 0b0e eb73 69b8
000000e0: 7bb0 7f00 4535 6333 553c 3528 3bcb 1dca
000000f0: 0176 05dd 257f bc3b dae8 d6f2 d778 e5d7
-54 50 -5 -21 -22 -65 -68 -29
67 -44 33 -60 77 -108 17 -127
-106 63 -101 -110 -85 21 -20 61
-47 1 91 -53 44 127 28 45
-51 -11 -85 3 -16 -47 28 -43
-98 127 83 14 54 60 -50 117
-56 -76 4 -46 -90 14 -52 -127
-9 12 46 -71 -66 -36 -121 -43
73 3 -16 44 -66 -4 -127 43
16 64 16 47 7 3 -47 -80
-97 66 -82 -25 65 -62 -26 -76
102 -22 11 -48 13 -119 -127 -109
-10 -42 -30 28 -86 70 33 -38
-22 -56 127 -29 -5 -6 -122 8
-33 109 127 -83 59 73 -8 -52
33 67 -79 -15 49 6 30 66
-47 0 41 -4 63 4 94 127
-75 -20 -74 -89 44 87 -70 -65
37 44 94 21 -116 -50 -93 -111
66 15 127 30 -39 -93 61 -21
-15 -111 3 -72 -127 77 34 33
-36 -52 2 42 -14 62 -119 29
123 -54 -7 100 -112 -40 60 -13
127 113 -55 40 22 -87 -21 110
-60 -60 127 -8 48 -18 16 59
63 -22 89 64 -34 12 -89 24
-1 -35 16 26 10 13 127 37
-111 7 11 14 -21 115 105 -72
123 -80 127 0 69 53 99 51
85 60 53 40 59 -53 29 -54
1 118 5 -35 37 127 -68 59
-38 -24 -42 -14 -41 120 -27 -41

model_1/block_4_project/Conv2D i1 [16, 1, 1, 96]
00000000: 171b 0d0e f2b7 f2fc e6bb 09fb 39bf 321e
00000010: a8e0 2103 4b15 bb0b f941 7f42 0b45 34d7
00000020: 06ff 06ea 1d16 f4fb 6f0f 15ed f5f6 07db
00000030: 18d9 5afb b9ff 2421 f8d7 0316 f224 c0f6
00000040: 0ff8 4221 01e7 131a 0421 051d 39e3 3117
00000050: f02b 201d c607 f545 1408 a7e8 1609 6946
00000060: 1423 ceee fcce 57b7 bfde c4d6 f9d4 f7c8
00000070: deeb deee eea5 6ee3 fe0c fe37 d103 d70c
00000080: e513 0e0a e733 c456 200b 04d7 32ca fc25
00000090: b1fb 3097 db2d 3f3d 241c bc12 d204 f6f4
000000a0: 2418 6705 d481 0c07 123e e71e d0e8 66e7
000000b0: 2bf6 31c2 e1c7 ee0e f1d7 1bfd 43c9 db36
000000c0: 04f1 0ef9 4430 ce1a ca2b 10e3 1ffb 151f
000000d0: 21e3 81f9 f2d9 f615 01f2 d114 daf0 f24a
000000e0: ecde 000c d41d ece8 4511 0226 0a37 02f6
000000f0: ab09 ee15 ea2e 10c2 2214 2e1e e9f2 ed35
23 27 13 14 -14 -73 -14 -4
-26 -69 9 -5 57 -65 50 30
-88 -32 33 3 75 21 -69 11
-7 65 127 66 11 69 52 -41
6 -1 6 -22 29 22 -12 -5
111 15 21 -19 -11 -10 7 -37
24 -39 90 -5 -71 -1 36 33
-8 -41 3 22 -14 36 -64 -10
15 -8 66 33 1 -25 19 26
4 33 5 29 57 -29 49 23
-16 43 32 29 -58 7 -11 69
20 8 -89 -24 22 9 105 70
20 35 -50 -18 -4 -50 87 -73
-65 -34 -60 -42 -7 -44 -9 -56
-34 -21 -34 -18 -18 -91 110 -29
-2 12 -2 55 -47 3 -41 12
-27 19 14 10 -25 51 -60 86
32 11 4 -41 50 -54 -4 37
-79 -5 48 -105 -37 45 63 61
36 28 -68 18 -46 4 -10 -12
36 24 103 5 -44 -127 12 7
18 62 -25 30 -48 -24 102 -25
43 -10 49 -62 -31 -57 -18 14
-15 -41 27 -3 67 -55 -37 54
4 -15 14 -7 68 48 -50 26
-54 43 16 -29 31 -5 21 31
33 -29 -127 -7 -14 -39 -10 21
1 -14 -47 20 -38 -16 -14 74
-20 -34 0 12 -44 29 -20 -24
69 17 2 38 10 55 2 -10
-85 9 -18 21 -22 46 16 -62
34 20 46 30 -23 -14 -19 53

model_1/block_4_depthwise_BN/FusedBatchNormV3;model_1/block_4_depthwise/depthwise;model_1/block_6_expand/Conv2D i1 [1, 3, 3, 96]
00000000: d2f4 02e9 62f6 24f1 fbff f4e2 e905 faf0
00000010: ee04 f3ed fa18 0b28 00e9 e802 1300 1602
00000020: ed02 fae1 01ba cf09 0000 29e1 e626 c0ec
00000030: e70a fb32 b800 1ef4 06f5 06eb fbef f3d3
00000040: eced d2db ef1a fcfc 1807 0405 ec0e 7feb
00000050: 8e0b 8cea e2f0 1809 eaed 09e1 fb1c e206
00000060: ee27 30c5 dcfa 7fc4 fdf0 d90f b504 a657
00000070: f44c 3fde f97f 5672 1efb 2d48 7f28 7fdf
00000080: 8cee a2db ed99 7fc9 e481 f7cb 43e1 d6f7
00000090: 2404 137f 9a26 aff9 b2f9 fb16 f781 81d2
000000a0: d302 f89b f20d c167 81f7 09e4 89ac f8b1
000000b0: 810a 19c0 654d c81d 8103 1aea 087e c7a7
000000c0: dc00 f5fb 3ffd 28e5 ee0e f4ff 0402 fbe6
000000d0: f101 ece3 fb04 0c1b 00f0 00ed 0806 0e07
000000e0: fd01 ef35 01ca d418 fc03 12f6 ebe5 d7e3
000000f0: ec00 fd21 fefb 08f2 3fee 08e5 f7f8 cbf6
-46 -12 2 -23 98 -10 36 -15
-5 -1 -12 -30 -23 5 -6 -16
-18 4 -13 -19 -6 24 11 40
0 -23 -24 2 19 0 22 2
-19 2 -6 -31 1 -70 -49 9
0 0 41 -31 -26 38 -64 -20
-25 10 -5 50 -72 0 30 -12
6 -11 6 -21 -5 -17 -13 -45
-20 -19 -46 -37 -17 26 -4 -4
24 7 4 5 -20 14 127 -21
-114 11 -116 -22 -30 -16 24 9
-22 -19 9 -31 -5 28 -30 6
-18 39 48 -59 -36 -6 127 -60
-3 -16 -39 15 -75 4 -90 87
-12 76 63 -34 -7 127 86 114
30 -5 45 72 127 40 127 -33
-116 -18 -94 -37 -19 -103 127 -55
-28 -127 -9 -53 67 -31 -42 -9
36 4 19 127 -102 38 -81 -7
-78 -7 -5 22 -9 -127 -127 -46
-45 2 -8 -101 -14 13 -63 103
-127 -9 9 -28 -119 -84 -8 -79
-127 10 25 -64 101 77 -56 29
-127 3 26 -22 8 126 -57 -89
-36 0 -11 -5 63 -3 40 -27
-18 14 -12 -1 4 2 -5 -26
-15 1 -20 -29 -5 4 12 27
0 -16 0 -19 8 6 14 7
-3 1 -17 53 1 -54 -44 24
-4 3 18 -10 -21 -27 -41 -29
-20 0 -3 33 -2 -5 8 -14
63 -18 8 -27 -9 -8 -53 -10

model_1/block_4_expand/Conv2D i1 [96, 1, 1, 16]
00000000: 2d09 0437 81e7 5c2e 3c58 ea2b 1401 214f
00000010: ea19 af03 7f5c f9ff ea15 c824 ca4e cfd6
00000020: d63b 4dfa 3d53 0427 28f9 2aef 3381 f80d
00000030: 7fe2 14ff 1f24 f80a 241f c9ea da30 df3a
00000040: aee6 0e2f 8cf0 9ce7 fc29 f0c6 e421 da7f
00000050: a50c 2412 7f19 000c ce26 e910 bc37 a7d8
00000060: 811a de20 fab7 430d 0be5 ca21 07fd d508
00000070: 046d 41a2 4e30 7f01 3709 f629 5615 dffc
00000080: d6e7 b237 c058 d1b9 20cf 6229 7f36 9a0f
00000090: ea81 ea53 d5c3 f238 342b 0844 b10c fade
000000a0: ddc9 9b35 837f 42a6 06b9 3cd7 2572 a95b
000000b0: d792 e021 fa58 28f9 1a12 2697 0e79 8178
000000c0: e8a8 b362 9581 0e3d 553d e265 f7b9 eaf3
000000d0: c2ec ddfc f304 210e ed7f f8ed 2823 0df6
000000e0: 8ee7 d6d1 f155 e497 7fc8 3ffa 56c5 a2a4
000000f0: 0081 5ac8 ccdf 0939 0dcc a4dc 56da e3d4
45 9 4 55 -127 -25 92 46
60 88 -22 43 20 1 33 79
-22 25 -81 3 127 92 -7 -1
-22 21 -56 36 -54 78 -49 -42
-42 59 77 -6 61 83 4 39
40 -7 42 -17 51 -127 -8 13
127 -30 20 -1 31 36 -8 10
36 31 -55 -22 -38 48 -33 58
-82 -26 14 47 -116 -16 -100 -25
-4 41 -16 -58 -28 33 -38 127
-91 12 36 18 127 25 0 12
-50 38 -23 16 -68 55 -89 -40
-127 26 -34 32 -6 -73 67 13
11 -27 -54 33 7 -3 -43 8
4 109 65 -94 78 48 127 1
55 9 -10 41 86 21 -33 -4
-42 -25 -78 55 -64 88 -47 -71
32 -49 98 41 127 54 -102 15
-22 -127 -22 83 -43 -61 -14 56
52 43 8 68 -79 12 -6 -34
-35 -55 -101 53 -125 127 66 -90
6 -71 60 -41 37 114 -87 91
-41 -110 -32 33 -6 88 40 -7
26 18 38 -105 14 121 -127 120
-24 -88 -77 98 -107 -127 14 61
85 61 -30 101 -9 -71 -22 -13
-62 -20 -35 -4 -13 4 33 14
-19 127 -8 -19 40 35 13 -10
-114 -25 -42 -47 -15 85 -28 -105
127 -56 63 -6 86 -59 -94 -92
0 -127 90 -56 -52 -33 9 57
13 -52 -92 -36 86 -38 -29 -44

model_1/block_3_project/Conv2D i1 [16, 1, 1, 48]
00000000: 1b27 16dc 4741 d837 f471 022c de25 f22e
00000010: 204f 2cc3 b84e f932 3c2c 2533 cecf f654
00000020: e60b b836 3481 dc0e 0fe0 3cfb f6c6 c1f1
00000030: cd05 b0d1 0a5b c315 f7dc d01f 3af0 e6e7
00000040: e1dd fb17 ba30 98d3 cdd8 3245 e5e0 28d2
00000050: 0fc6 df38 0dc2 7fdd eb1d d4ee 2132 2216
00000060: 0302 3de1 eeac 1517 644e c010 72cc 7f56
00000070: bbec e11d 58ae dc9b 0ddc 27b7 2830 d811
00000080: 24e3 3a2c bf0a 04e1 1e1f 42f1 15ac 61c8
00000090: 2901 ebe2 226c 0fed 2ace 15e6 cd06 0c2c
000000a0: d3bb 2488 f401 e3ec da58 7f3d f2d5 1927
000000b0: 3ee0 5c25 d6c5 ff25 1c0c ef01 1612 f7eb
000000c0: 63f5 09d2 5b57 3308 46ef 9a20 2eed 11ed
000000d0: a189 e59d ed1a d6dc ab7f 987a c6cd 1e4f
000000e0: 24cb 0edd f610 e81b cdf5 f836 cd6c e0c7
000000f0: fefe c808 f235 10e8 3b36 2859 32e9 1dfb
27 39 22 -36 71 65 -40 55
-12 113 2 44 -34 37 -14 46
32 79 44 -61 -72 78 -7 50
60 44 37 51 -50 -49 -10 84
-26 11 -72 54 52 -127 -36 14
15 -32 60 -5 -10 -58 -63 -15
-51 5 -80 -47 10 91 -61 21
-9 -36 -48 31 58 -16 -26 -25
-31 -35 -5 23 -70 48 -104 -45
-51 -40 50 69 -27 -32 40 -46
15 -58 -33 56 13 -62 127 -35
-21 29 -44 -18 33 50 34 22
3 2 61 -31 -18 -84 21 23
100 78 -64 16 114 -52 127 86
-69 -20 -31 29 88 -82 -36 -101
13 -36 39 -73 40 48 -40 17
36 -29 58 44 -65 10 4 -31
30 31 66 -15 21 -84 97 -56
41 1 -21 -30 34 108 15 -19
42 -50 21 -26 -51 6 12 44
-45 -69 36 -120 -12 1 -29 -20
-38 88 127 61 -14 -43 25 39
62 -32 92 37 -42 -59 -1 37
28 12 -17 1 22 18 -9 -21
99 -11 9 -46 91 87 51 8
70 -17 -102 32 46 -19 17 -19
-95 -119 -27 -99 -19 26 -42 -36
-85 127 -104 122 -58 -51 30 79
36 -53 14 -35 -10 16 -24 27
-51 -11 -8 54 -51 108 -32 -57
-2 -2 -56 8 -14 53 16 -24
59 54 40 89 50 -23 29 -5

model_1/block_3_depthwise_BN/FusedBatchNormV3;model_1/block_3_depthwise/depthwise i1 [1, 3, 3, 48]
00000000: a242 815c 9b39 ce68 b8c2 40cd 3cab ced0
00000010: 4749 5690 5595 4ea8 a7c3 437f 9fca ac55
00000020: 46a3 3f8d b18c 5ad4 faad 7195 653c b0d4
00000030: 905e c374 b875 d065 8da4 61b7 5e8d b9b7
00000040: 606a 7f81 6d89 6381 97a2 547d 21b1 9e5d
00000050: 5f81 5c84 a281 71ba a163 7f8e e066 a2b3
00000060: c638 031f f53f ed35 c9e0 26eb 2bd9 e0f3
00000070: 2332 42df 1ccb 1fcd abd7 2017 65df d20e
00000080: 1caf 24d7 ead7 2bcd 93e4 2dda c136 e1c5
00000090: 9859 b96e b56e 8e7a a6a2 51ac 549b aba2
000000a0: 6459 d093 668c 68b6 8ca8 606d 81ab 9a6e
000000b0: 6320 5d8b 9587 64b3 949f 6b83 7f45 91af
000000c0: 817f 9b7f 817f 817f 8181 7f81 7f81 8181
000000d0: 7f7f ca89 7f81 7f8d 8181 7f7e 1681 817f
000000e0: 7f2b 7f81 818f 7f81 817f 7881 cd7f 8181
000000f0: b645 b62a cd1d cd45 cedc 31d0 38ca caf2
-94 66 -127 92 -101 57 -50 104
-72 -62 64 -51 60 -85 -50 -48
71 73 86 -112 85 -107 78 -88
-89 -61 67 127 -97 -54 -84 85
70 -93 63 -115 -79 -116 90 -44
-6 -83 113 -107 101 60 -80 -44
-112 94 -61 116 -72 117 -48 101
-115 -92 97 -73 94 -115 -71 -73
96 106 127 -127 109 -119 99 -127
-105 -94 84 125 33 -79 -98 93
95 -127 92 -124 -94 -127 113 -70
-95 99 127 -114 -32 102 -94 -77
-58 56 3 31 -11 63 -19 53
-55 -32 38 -21 43 -39 -32 -13
35 50 66 -33 28 -53 31 -51
-85 -41 32 23 101 -33 -46 14
28 -81 36 -41 -22 -41 43 -51
-109 -28 45 -38 -63 54 -31 -59
-104 89 -71 110 -75 110 -114 122
-90 -94 81 -84 84 -101 -85 -94
100 89 -48 -109 102 -116 104 -74
-116 -88 96 109 -127 -85 -102 110
99 32 93 -117 -107 -121 100 -77
-108 -97 107 -125 127 69 -111 -81
-127 127 -101 127 -127 127 -127 127
-127 -127 127 -127 127 -127 -127 -127
127 127 -54 -119 127 -127 127 -115
-127 -127 127 126 22 -127 -127 127
127 43 127 -127 -127 -113 127 -127
-127 127 120 -127 -51 127 -127 -127
-74 69 -74 42 -51 29 -51 69
-50 -36 49 -48 56 -54 -54 -14

model_1/block_3_expand/Conv2D i1 [48, 1, 1, 8]
00000000: 4320 7fda 3f66 b2c9 09aa 8104 311b 1f00
00000010: 81f7 cee5 3a1c bad3 2844 7fb1 f997 f9f1
00000020: 8118 d0e4 2b0a d5c6 a214 c7f5 0b28 b381
00000030: df81 8926 5d0a 0a29 be81 9eaf b6bc 115a
00000040: 5020 faff 5db3 810e de32 cd55 c7d7 7fdf
00000050: e77f 2441 79ea f439 b0e1 e7f3 a863 7ffb
00000060: 4520 8126 f9dc bff2 43de ba07 0e81 e5e6
00000070: 05b5 4c0e 7f93 bf16 d8d2 fb7f 4357 b719
00000080: 711e db14 4b92 81e9 3c7f 3948 3042 18a9
00000090: 20f3 01ff 7f05 1af3 0d7f 1f10 8a10 1bdf
000000a0: d516 4581 1521 ee6c df46 2781 212b f572
000000b0: b7bf a412 8179 6be7 6725 8111 11cc b9ea
000000c0: cb27 0907 e950 8161 98cb 8109 c4be 4065
000000d0: 30f5 d9e2 69f2 7fd9 7fb9 1658 0020 ef5a
000000e0: 2837 34f7 7fcc 33e0 f3f3 e5d6 bb0c 7fdc
000000f0: 2f81 cab6 97fa 0ec6 0a1d f9f5 8104 e4f6
67 32 127 -38 63 102 -78 -55
9 -86 -127 4 49 27 31 0
-127 -9 -50 -27 58 28 -70 -45
40 68 127 -79 -7 -105 -7 -15
-127 24 -48 -28 43 10 -43 -58
-94 20 -57 -11 11 40 -77 -127
-33 -127 -119 38 93 10 10 41
-66 -127 -98 -81 -74 -68 17 90
80 32 -6 -1 93 -77 -127 14
-34 50 -51 85 -57 -41 127 -33
-25 127 36 65 121 -22 -12 57
-80 -31 -25 -13 -88 99 127 -5
69 32 -127 38 -7 -36 -65 -14
67 -34 -70 7 14 -127 -27 -26
5 -75 76 14 127 -109 -65 22
-40 -46 -5 127 67 87 -73 25
113 30 -37 20 75 -110 -127 -23
60 127 57 72 48 66 24 -87
32 -13 1 -1 127 5 26 -13
13 127 31 16 -118 16 27 -33
-43 22 69 -127 21 33 -18 108
-33 70 39 -127 33 43 -11 114
-73 -65 -92 18 -127 121 107 -25
103 37 -127 17 17 -52 -71 -22
-53 39 9 7 -23 80 -127 97
-104 -53 -127 9 -60 -66 64 101
48 -11 -39 -30 105 -14 127 -39
127 -71 22 88 0 32 -17 90
40 55 52 -9 127 -52 51 -32
-13 -13 -27 -42 -69 12 127 -36
47 -127 -54 -74 -105 -6 14 -58
10 29 -7 -11 -127 4 -28 -10

model_1/block_2_project/Conv2D i1 [8, 1, 1, 48]
00000000: dad5 eec2 fef0 574f a3ae de04 c9fd c21e
00000010: b308 0b7f 38e9 0c58 4146 1905 a9cd b1c6
00000020: d261 20cf 1ae0 5bfb 1704 fe9b 26e2 e3af
00000030: f436 efe8 b938 edd3 e045 f111 372c d0f9
00000040: ec8b 4bcd 7f0a c218 3afb b13f 28f5 451f
00000050: e3f1 05f6 026a f2e8 4229 f80e 6b0f e538
00000060: e9de 6f04 53d5 f315 dffe f62c 09d8 d281
00000070: cfa2 e70e a413 dbe0 d210 00d2 d706 e1f3
00000080: fdfc 1bfa 19e1 ce07 21df 1fd3 d8d5 c2cf
00000090: 330d 400a 14de 244a cce7 2ae8 bd39 ec34
000000a0: 431b db21 91bf 7f01 0905 c8e2 cf40 77bd
000000b0: 0591 e62d f3b0 f64a b6c9 3c00 9db7 3cf8
000000c0: 14eb 47e2 08f4 feff c7fb e807 2fb6 299f
000000d0: 2c2e f5dc 0923 140b 0205 3df0 1c18 81f1
000000e0: e3ec 0312 32fd 2403 dbf6 ba1e ee9e 0315
000000f0: 19cf 3c1c 2110 1602 b7f6 d31b 2008 0bd5
-38 -43 -18 -62 -2 -16 87 79
-93 -82 -34 4 -55 -3 -62 30
-77 8 11 127 56 -23 12 88
65 70 25 5 -87 -51 -79 -58
-46 97 32 -49 26 -32 91 -5
23 4 -2 -101 38 -30 -29 -81
-12 54 -17 -24 -71 56 -19 -45
-32 69 -15 17 55 44 -48 -7
-20 -117 75 -51 127 10 -62 24
58 -5 -79 63 40 -11 69 31
-29 -15 5 -10 2 106 -14 -24
66 41 -8 14 107 15 -27 56
-23 -34 111 4 83 -43 -13 21
-33 -2 -10 44 9 -40 -46 -127
-49 -94 -25 14 -92 19 -37 -32
-46 16 0 -46 -41 6 -31 -13
-3 -4 27 -6 25 -31 -50 7
33 -33 31 -45 -40 -43 -62 -49
51 13 64 10 20 -34 36 74
-52 -25 42 -24 -67 57 -20 52
67 27 -37 33 -111 -65 127 1
9 5 -56 -30 -49 64 119 -67
5 -111 -26 45 -13 -80 -10 74
-74 -55 60 0 -99 -73 60 -8
20 -21 71 -30 8 -12 -2 -1
-57 -5 -24 7 47 -74 41 -97
44 46 -11 -36 9 35 20 11
2 5 61 -16 28 24 -127 -15
-29 -20 3 18 50 -3 36 3
-37 -10 -70 30 -18 -98 3 21
25 -49 60 28 33 16 22 2
-73 -10 -45 27 32 8 11 -43

model_1/block_2_depthwise_BN/FusedBatchNormV3;model_1/block_2_depthwise/depthwise;model_1/block_3_depthwise/depthwise i1 [1, 3, 3, 48]
00000000: 0bda 0707 eea3 d630 ddfa fa09 2cfd f004
00000010: 6114 1c05 02e3 bc15 fdf2 fee2 c248 f094
00000020: 2ffa cfc4 f8e4 08eb ef27 0e06 f645 7fe5
00000030: 81ab e77f bf43 9e7f 1c0f 0efe 3215 fbd8
00000040: e03d 1d0a 067f 0e7f 7fe2 d32b 4281 f7b7
00000050: 40fc de83 180b c8cb 81fd a385 253a 3675
00000060: ef01 0a0b e71f 2534 07de 0005 ed01 f906
00000070: c12a bde8 f8dc 7f18 cc05 0cfe 1125 0d09
00000080: faf0 e051 0703 0e4e 1dec 1de1 fa27 ecf0
00000090: f7e7 e202 20a0 7faf f309 1425 7f12 fede
000000a0: e5e7 202d 41b6 2c0c c17f b3eb 7f9d 3081
000000b0: d403 b40d 0dc7 d703 7c7f 0f81 c3c9 fb50
000000c0: 5c81 7f03 7f47 b7cc 207f 7f81 9f7f 7f7f
000000d0: 7f7f 7e7f 7f77 0203 779d 817f 247d 7ffa
000000e0: 817f 7f7f 817f 8181 2c28 81d8 7f81 f154
000000f0: 121f d7fe ce7f 8761 69b5 0e40 dd0d 09c0
11 -38 7 7 -18 -93 -42 48
-35 -6 -6 9 44 -3 -16 4
97 20 28 5 2 -29 -68 21
-3 -14 -2 -30 -62 72 -16 -108
47 -6 -49 -60 -8 -28 8 -21
-17 39 14 6 -10 69 127 -27
-127 -85 -25 127 -65 67 -98 127
28 15 14 -2 50 21 -5 -40
-32 61 29 10 6 127 14 127
127 -30 -45 43 66 -127 -9 -73
64 -4 -34 -125 24 11 -56 -53
-127 -3 -93 -123 37 58 54 117
-17 1 10 11 -25 31 37 52
7 -34 0 5 -19 1 -7 6
-63 42 -67 -24 -8 -36 127 24
-52 5 12 -2 17 37 13 9
-6 -16 -32 81 7 3 14 78
29 -20 29 -31 -6 39 -20 -16
-9 -25 -30 2 32 -96 127 -81
-13 9 20 37 127 18 -2 -34
-27 -25 32 45 65 -74 44 12
-63 127 -77 -21 127 -99 48 -127
-44 3 -76 13 13 -57 -41 3
124 127 15 -127 -61 -55 -5 80
92 -127 127 3 127 71 -73 -52
32 127 127 -127 -97 127 127 127
127 127 126 127 127 119 2 3
119 -99 -127 127 36 125 127 -6
-127 127 127 127 -127 127 -127 -127
44 40 -127 -40 127 -127 -15 84
18 31 -41 -2 -50 127 -121 97
105 -75 14 64 -35 13 9 -64

model_1/block_2_expand/Conv2D i1 [48, 1, 1, 8]
00000000: 437f b2a0 0f5c 1444 3ab0 2d81 c74d acd4
00000010: e17f 7a30 7408 380b 712a 9b3f f692 81d8
00000020: d220 0db8 d66f 7f34 1653 81ae 3259 1ee6
00000030: f87f 4235 460b 10ac 7fe9 e11f 1905 670f
00000040: 357f 3c5c 6949 5aae 3075 81a4 0e61 014b
00000050: bfd4 14cf fee2 d07f 0d8f 81ef 13f6 27f4
00000060: e692 84e1 8118 c42a fa08 9765 81e5 00ec
00000070: bdd7 81f6 26ff f3c6 1398 8110 97e6 e3f4
00000080: 7fbb ef42 ab1c 2268 e66e 7fe7 cef8 e7e9
00000090: 0581 334b ffbb 30ad 7fd0 c424 a005 2c64
000000a0: e381 534c f3a6 feb7 f9d1 f7e0 7ffb 2a15
000000b0: 8117 b531 2f38 a793 a9cb 3bf8 987f 7bcd
000000c0: dd3a fdd4 d97f 7c04 c791 81c0 c6f2 e7d4
000000d0: f441 f27f a324 ca01 1281 234b 11c6 0786
000000e0: 107f 382a 76ef 16c1 661d def5 5381 9625
000000f0: 17f7 1f81 13e9 13e6 2dd7 053d f120 0d7f
67 127 -78 -96 15 92 20 68
58 -80 45 -127 -57 77 -84 -44
-31 127 122 48 116 8 56 11
113 42 -101 63 -10 -110 -127 -40
-46 32 13 -72 -42 111 127 52
22 83 -127 -82 50 89 30 -26
-8 127 66 53 70 11 16 -84
127 -23 -31 31 25 5 103 15
53 127 60 92 105 73 90 -82
48 117 -127 -92 14 97 1 75
-65 -44 20 -49 -2 -30 -48 127
13 -113 -127 -17 19 -10 39 -12
-26 -110 -124 -31 -127 24 -60 42
-6 8 -105 101 -127 -27 0 -20
-67 -41 -127 -10 38 -1 -13 -58
19 -104 -127 16 -105 -26 -29 -12
127 -69 -17 66 -85 28 34 104
-26 110 127 -25 -50 -8 -25 -23
5 -127 51 75 -1 -69 48 -83
127 -48 -60 36 -96 5 44 100
-29 -127 83 76 -13 -90 -2 -73
-7 -47 -9 -32 127 -5 42 21
-127 23 -75 49 47 56 -89 -109
-87 -53 59 -8 -104 127 123 -51
-35 58 -3 -44 -39 127 124 4
-57 -111 -127 -64 -58 -14 -25 -44
-12 65 -14 127 -93 36 -54 1
18 -127 35 75 17 -58 7 -122
16 127 56 42 118 -17 22 -63
102 29 -34 -11 83 -127 -106 37
23 -9 31 -127 19 -23 19 -26
45 -41 5 61 -15 32 13 127

model_1/block_1_project/Conv2D i1 [8, 1, 1, 48]
00000000: d3fe 1f0a e0f2 0a08 d6f8 c1c8 e7c0 f4e2
00000010: 2ed8 282c f11f dc0e 01d9 37f3 fdee 100c
00000020: 5022 2681 11ff efdd 04ef 2b2f 2303 1c03
00000030: fe27 3fe6 f52e cfe1 0117 f2a2 095b f038
00000040: ee16 e8ca 09b0 e714 bbf2 fe8d e8f2 1ec9
00000050: 2f4f d902 7fe1 012f e227 ade4 73ed e1e7
00000060: feea c40f fc2d 1902 f62a fe1b 40a5 11c2
00000070: 22a8 1621 e834 fa1a f03b e7ba 1105 12b9
00000080: d3a9 23e2 6a14 f5c8 001e 4e1c 7f11 1219
00000090: fa19 bd27 0edb bc9b 0de8 de01 0519 224e
000000a0: fa0d dd18 049f 1cc8 b7f8 7ff2 d703 bd11
000000b0: 00b2 0df4 e9d9 ea64 d4da 0012 2703 db2a
000000c0: e7d1 f908 1fe4 f5f7 1ce4 3ab3 061e 080a
000000d0: f1e7 0cf1 fecd 03ed 10f8 282f 2116 f11a
000000e0: f5ff 03ff bd53 23e8 1eed ecea b60d 7f0b
000000f0: 2cea 010e 1ad6 2081 1ae4 f779 b042 19bc
-45 -2 31 10 -32 -14 10 8
-42 -8 -63 -56 -25 -64 -12 -30
46 -40 40 44 -15 31 -36 14
1 -39 55 -13 -3 -18 16 12
80 34 38 -127 17 -1 -17 -35
4 -17 43 47 35 3 28 3
-2 39 63 -26 -11 46 -49 -31
1 23 -14 -94 9 91 -16 56
-18 22 -24 -54 9 -80 -25 20
-69 -14 -2 -115 -24 -14 30 -55
47 79 -39 2 127 -31 1 47
-30 39 -83 -28 115 -19 -31 -25
-2 -22 -60 15 -4 45 25 2
-10 42 -2 27 64 -91 17 -62
34 -88 22 33 -24 52 -6 26
-16 59 -25 -70 17 5 18 -71
-45 -87 35 -30 106 20 -11 -56
0 30 78 28 127 17 18 25
-6 25 -67 39 14 -37 -68 -101
13 -24 -34 1 5 25 34 78
-6 13 -35 24 4 -97 28 -56
-73 -8 127 -14 -41 3 -67 17
0 -78 13 -12 -23 -39 -22 100
-44 -38 0 18 39 3 -37 42
-25 -47 -7 8 31 -28 -11 -9
28 -28 58 -77 6 30 8 10
-15 -25 12 -15 -2 -51 3 -19
16 -8 40 47 33 22 -15 26
-11 -1 3 -1 -67 83 35 -24
30 -19 -20 -22 -74 13 127 11
44 -22 1 14 26 -42 32 -127
26 -28 -9 121 -80 66 25 -68

model_1/block_1_depthwise_BN/FusedBatchNormV3;model_1/block_1_depthwise/depthwise;model_1/block_3_depthwise/depthwise i1 [1, 3, 3, 48]
00000000: d0a4 f4e6 7fcb 40c6 aaae ebcf 7528 4881
00000010: 3be8 03d3 aa74 050d ef54 3ede 45bc 0ed8
00000020: 9bab 2a46 1650 72bc 83f3 2246 2e81 5757
00000030: cb8d b434 a86a 38bf bc2a 498b 7f5a 71b1
00000040: abaa 20cd ac67 c973 a56e 5a86 55d1 0985
00000050: d1ac 497f 7275 7fc0 81c1 4058 516d 5b4d
00000060: fece bb5b cee9 1af9 5e12 37b3 1538 def8
00000070: aaf0 20dd e1fa be02 b82e 15aa 1d38 76b6
00000080: 100b f634 5147 3200 ea5d 3e1b 241d 0f85
00000090: 8a9e f1ad adb9 5c92 8181 55b6 6034 83b2
000000a0: 7f81 c2b0 a27b d10a f05b 68d2 96b5 01ce
000000b0: a181 8142 2558 0aa2 38f3 4d71 4f70 7881
000000c0: 8181 818f e17f 7f81 5c41 7f81 6f7f 458a
000000d0: 389f 8181 817f 817f 817f 7f81 817f f481
000000e0: 8195 2e7d 7f7f f481 60a0 7f7f 7ffd 7f72
000000f0: ceb8 857f 45d9 30e6 4617 13c7 0b40 52ca
-48 -92 -12 -26 127 -53 64 -58
-86 -82 -21 -49 117 40 72 -127
59 -24 3 -45 -86 116 5 13
-17 84 62 -34 69 -68 14 -40
-101 -85 42 70 22 80 114 -68
-125 -13 34 70 46 -127 87 87
-53 -115 -76 52 -88 106 56 -65
-68 42 73 -117 127 90 113 -79
-85 -86 32 -51 -84 103 -55 115
-91 110 90 -122 85 -47 9 -123
-47 -84 73 127 114 117 127 -64
-127 -63 64 88 81 109 91 77
-2 -50 -69 91 -50 -23 26 -7
94 18 55 -77 21 56 -34 -8
-86 -16 32 -35 -31 -6 -66 2
-72 46 21 -86 29 56 118 -74
16 11 -10 52 81 71 50 0
-22 93 62 27 36 29 15 -123
-118 -98 -15 -83 -83 -71 92 -110
-127 -127 85 -74 96 52 -125 -78
127 -127 -62 -80 -94 123 -47 10
-16 91 104 -46 -106 -75 1 -50
-95 -127 -127 66 37 88 10 -94
56 -13 77 113 79 112 120 -127
-127 -127 -127 -113 -31 127 127 -127
92 65 127 -127 111 127 69 -118
56 -97 -127 -127 -127 127 -127 127
-127 127 127 -127 -127 127 -12 -127
-127 -107 46 125 127 127 -12 -127
96 -96 127 127 127 -3 127 114
-50 -72 -123 127 69 -39 48 -26
70 23 19 -57 11 64 82 -54

model_1/block_1_expand/Conv2D i1 [48, 1, 1, 8]
00000000: dc1d fff3 b1e0 8120 54b5 caca 7fab 6015
00000010: 977f cb82 36ee e32d 3013 5c08 5e7c 7ff6
00000020: b681 460a c88c 00dc 7feb 4544 baf4 00eb
00000030: 1825 7fe3 2ddd d51c 1d06 81de d763 5fb6
00000040: fe7f dd0a 4165 3135 ff7f c261 0b88 317a
00000050: 0781 fae7 b18a cbad 81ac 6a34 f6c1 6840
00000060: e82d 8152 23c9 bc5d 5d81 5a52 0923 23c6
00000070: e360 d681 e292 e2c0 2972 1eef 25be 6381
00000080: 8881 c35e ca1a ed53 e793 8152 c54b cc47
00000090: 9fb8 ce5c f743 fb7f 4182 6881 0bbb 22df
000000a0: ff49 1f0a 2a7f 48f2 1c73 2de0 29bb 5e81
000000b0: 1309 6316 f47f 1ddf 9abf 26bb 5d5f c681
000000c0: a0a1 21a9 696a d081 7f0b c5f1 0f1f c0f6
000000d0: 82da 81e9 cbe4 12fe 4d1f 00c3 81e6 5758
000000e0: 81ab 0433 b4a0 0703 776b 2881 200d bda5
000000f0: acbe 2abe 4a55 d081 332e fa7f 07b7 0607
-36 29 -1 -13 -79 -32 -127 32
84 -75 -54 -54 127 -85 96 21
-105 127 -53 -126 54 -18 -29 45
48 19 92 8 94 124 127 -10
-74 -127 70 10 -56 -116 0 -36
127 -21 69 68 -70 -12 0 -21
24 37 127 -29 45 -35 -43 28
29 6 -127 -34 -41 99 95 -74
-2 127 -35 10 65 101 49 53
-1 127 -62 97 11 -120 49 122
7 -127 -6 -25 -79 -118 -53 -83
-127 -84 106 52 -10 -63 104 64
-24 45 -127 82 35 -55 -68 93
93 -127 90 82 9 35 35 -58
-29 96 -42 -127 -30 -110 -30 -64
41 114 30 -17 37 -66 99 -127
-120 -127 -61 94 -54 26 -19 83
-25 -109 -127 82 -59 75 -52 71
-97 -72 -50 92 -9 67 -5 127
65 -126 104 -127 11 -69 34 -33
-1 73 31 10 42 127 72 -14
28 115 45 -32 41 -69 94 -127
19 9 99 22 -12 127 29 -33
-102 -65 38 -69 93 95 -58 -127
-96 -95 33 -87 105 106 -48 -127
127 11 -59 -15 15 31 -64 -10
-126 -38 -127 -23 -53 -28 18 -2
77 31 0 -61 -127 -26 87 88
-127 -85 4 51 -76 -96 7 3
119 107 40 -127 32 13 -67 -91
-84 -66 42 -66 74 85 -48 -127
51 46 -6 127 7 -73 6 7

model_1/expanded_conv_project/Conv2D i1 [8, 1, 1, 16]
00000000: f4f1 edc0 e5de 14ee 2408 def9 6d7f eb98
00000010: 7fc5 d610 d34a bbd5 d656 decd f604 c0ef
00000020: dea0 2a28 30c9 b2ea 1ea8 1981 2de9 b318
00000030: 240d 0f0f f443 cbec 7f2c 0a17 04f4 0c17
00000040: a0db e581 f628 368b 1ef0 d0da 851f d7e9
00000050: 5635 48e6 31d0 8186 f0b1 4133 c531 43d5
00000060: 6a29 83b3 1db4 04a4 d714 8162 5ea7 084a
00000070: 81fc 63e3 c002 fdc2 cd3d 55df 40e4 1f1f
-12 -15 -19 -64 -27 -34 20 -18
36 8 -34 -7 109 127 -21 -104
127 -59 -42 16 -45 74 -69 -43
-42 86 -34 -51 -10 4 -64 -17
-34 -96 42 40 48 -55 -78 -22
30 -88 25 -127 45 -23 -77 24
36 13 15 15 -12 67 -53 -20
127 44 10 23 4 -12 12 23
-96 -37 -27 -127 -10 40 54 -117
30 -16 -48 -38 -123 31 -41 -23
86 53 72 -26 49 -48 -127 -122
-16 -79 65 51 -59 49 67 -43
106 41 -125 -77 29 -76 4 -92
-41 20 -127 98 94 -89 8 74
-127 -4 99 -29 -64 2 -3 -62
-51 61 85 -33 64 -28 31 31

model_1/expanded_conv_depthwise_BN/FusedBatchNormV3;model_1/expanded_conv_depthwise/depthwise;model_1/block_5_project/Conv2D i1 [1, 3, 3, 16]
00000000: 03fd 0304 ec0b 0810 fbf5 01f7 fff9 0200
00000010: 07fa 0103 0dfe 0de7 fa09 fa58 f815 0600
00000020: 02fb fc03 01f2 fd0c 0302 fcf6 02fc fdff
00000030: 0ef6 0204 7fe8 81ec 7f7f fffc 70e9 00ee
00000040: 817f 7fff a8a5 f19b 1397 7f7f 7f7f 7f7f
00000050: 15fe fc00 f57f 03f7 fff4 fbfb 0bfd f5f8
00000060: 01fd fff3 ed0f 3607 f7f8 0000 fc01 fcf5
00000070: 16f0 fc81 06f0 f67f fc01 02f2 f7c8 f9dc
00000080: 02fd fefd 00fb ffff 0202 fe00 01fc f9f5
3 -3 3 4 -20 11 8 16
-5 -11 1 -9 -1 -7 2 0
7 -6 1 3 13 -2 13 -25
-6 9 -6 88 -8 21 6 0
2 -5 -4 3 1 -14 -3 12
3 2 -4 -10 2 -4 -3 -1
14 -10 2 4 127 -24 -127 -20
127 127 -1 -4 112 -23 0 -18
-127 127 127 -1 -88 -91 -15 -101
19 -105 127 127 127 127 127 127
21 -2 -4 0 -11 127 3 -9
-1 -12 -5 -5 11 -3 -11 -8
1 -3 -1 -13 -19 15 54 7
-9 -8 0 0 -4 1 -4 -11
22 -16 -4 -127 6 -16 -10 127
-4 1 2 -14 -9 -56 -7 -36
2 -3 -2 -3 0 -5 -1 -1
2 2 -2 0 1 -4 -7 -11

model_1/Conv1/Conv2D i1 [16, 3, 3, 1]
00000000: aa91 e242 da11 1f7f 1369 a1f6 8168 170e
00000010: fef3 e8fd d023 5f7f f3a1 b179 7f3a 02eb
00000020: f19b 81d4 1ac6 ff1a 8100 0faa f1c2 1f01
00000030: 8124 06ad 1c02 ef4f 7fcd 37f0 dbcc a724
00000040: 1aee 7f48 f91e 02e6 ece3 35cb ab7f e7c4
00000050: 60eb 34f5 f17f f4f9 5afa 1857 0cdb 81e2
00000060: 0b27 1107 ed0a 41a3 23ac 7fd2 d731 f681
00000070: 7306 b24f 0552 17f5 7f68 f949 6b29 e1e4
00000080: 2f2c 6281 f0ba 50a9 e515 8186 12eb bafa
-86 -111 -30 66 -38 17 31 127
19 105 -95 -10 -127 104 23 14
-2 -13 -24 -3 -48 35 95 127
-13 -95 -79 121 127 58 2 -21
-15 -101 -127 -44 26 -58 -1 26
-127 0 15 -86 -15 -62 31 1
-127 36 6 -83 28 2 -17 79
127 -51 55 -16 -37 -52 -89 36
26 -18 127 72 -7 30 2 -26
-20 -29 53 -53 -85 127 -25 -60
96 -21 52 -11 -15 127 -12 -7
90 -6 24 87 12 -37 -127 -30
11 39 17 7 -19 10 65 -93
35 -84 127 -46 -41 49 -10 -127
115 6 -78 79 5 82 23 -11
127 104 -7 73 107 41 -31 -28
47 44 98 -127 -16 -70 80 -87
-27 21 -127 -122 18 -21 -70 -6
